houseprice.pt (torch, 43618 bytes, 21 tensors)

weight f4 [15, 8]
-0.02718344 -0.11505549 0.01008939 -0.01734886 0.021570535 -0.040042922 0.05048047 0.022321353
0.30153093 0.041299842 -0.2702597 -0.12776852 0.24347106 0.0058115474 0.20792411 -0.08457378
-0.69855565 1.6314098 -2.7338035 0.26413012 -0.5004089 0.46689773 -0.26175082 -0.49912387
-0.16453929 1.0929478 0.4614402 1.6593056 -0.06464848 -0.5091936 -0.07618319 -0.45559108
0.011881587 1.3524799 -0.38035846 0.39512163 0.24240094 -0.4720162 0.09824965 0.44976014
0.19330789 0.052607622 -0.0073533515 0.036627553 -0.04692671 0.013394939 0.21208039 -0.029795105
-0.46385714 -0.0027477632 1.8828931 -0.055508435 -1.9598335 0.13721532 -0.14675221 -0.009304924
-0.3261389 -0.056529913 -0.35605428 -0.21956007 0.14470841 0.38742155 -0.5489146 -0.22145379
-0.10743344 -0.10991183 -0.026590277 -0.07925908 -0.45945475 -0.21199429 -0.15677506 -0.052329928
-0.25042656 -0.7223003 0.34968293 0.56837213 -0.3317071 -1.1275992 -0.3721323 0.06036608
0.8267681 -0.98560333 -0.32582796 4.1001573 1.5938051 -1.5520126 1.4021276 3.453032
-0.64654803 0.09194918 0.081582874 -0.25969604 -0.2788334 0.21900442 -0.46451664 -0.24705425
0.00068634533 0.23038399 -0.77597314 0.09630969 0.07851359 -1.0912988 0.012848358 0.61825126
0.33922833 -0.63555086 -0.08484238 -0.1859962 0.70973283 0.23219107 0.7435701 -0.14401586
0.39443743 1.3112553 -1.8844463 0.9134733 0.14467849 -1.604947 0.75267076 1.6651138
00000000: ceaf debc 36a2 ebbd f84d 253c 321f 8ebc
00000010: b1b4 b03c 0c04 24bd 9cc4 4e3d 45db b63c
00000020: 4362 9a3e 062a 293d 7b5f 8abe c0d5 02be
00000030: 7a50 793e cb6e be3b 0fea 543e 0535 adbd
00000040: 8bd4 32bf 09d2 d03f a3f6 2ec0 103c 873e
00000050: cc1a 00bf 380d ef3e 3404 86be 2a8d ffbe
00000060: fd7c 28be b7e5 8b3f e441 ec3e 2064 d43f
00000070: 6c66 84bd 835a 02bf ef05 9cbd 3c43 e9be
00000080: fdaa 423c 101e ad3f 58be c2be 624d ca3e
00000090: f437 783e 1bac f1be 1d37 c93d f646 e63e
000000a0: 81f2 453e 177b 573d 62f4 f0bb c606 163d
000000b0: 3936 40bd 7276 5b3c 9a2b 593e dd14 f4bc
000000c0: af7e edbe d113 34bb a402 f13f d05c 63bd
000000d0: d3db fabf 2c82 0c3e 3646 16be ae73 18bc
000000e0: aefb a6be e98b 67bd bf4c b6be 5bd4 60be
000000f0: 712e 143e 1e5c c63e ab85 0cbf c8c4 62be
00000100: 1006 dcbd 7419 e1bd dad3 d9bc 9652 a2bd
00000110: a73d ebbe 0815 59be a489 20be e857 56bd
00000120: e937 80be ace8 38bf a409 b33e d680 113f
00000130: 83d5 a9be 2c55 90bf 2088 bebe 6c42 773d
00000140: 13a7 533f 8050 7cbf ecd2 a6be 7d34 8340
00000150: ce01 cc3f 59a8 c6bf eb78 b33f 7afe 5c40
00000160: 2c84 25bf da4f bc3d ec14 a73d e1f6 84be
00000170: 40c3 8ebe b242 603e 20d5 edbe cafb 7cbe
00000180: dbeb 333a c8e9 6b3e 2da6 46bf 043e c53d
00000190: bccb a03d aeaf 8bbf eb81 523c b745 1e3f
000001a0: 56af ad3e 76b3 22bf d7c1 adbd ca75 3ebe
000001b0: 0db1 353f 7fc3 6d3e 9c5a 3e3f e578 13be
000001c0: b4f3 c93e 37d7 a73f 8935 f1bf 63d9 693f
000001d0: 9926 143e e76e cdbf 08af 403f 7322 d53f

weight f4 [5, 3]
2.591707 1.1165944 -1.9545609 -0.1327914 0.059471253 0.66739815 -0.25290263 0.5135018
-0.57622564 -0.05507429 0.020016214 0.0052412674 0.5855426 -0.97610474 -0.115532115
00000000: 87de 2540 91ec 8e3f 0d2f fabf 78fa 07be
00000010: 2198 733d 9bda 2a3f 747c 81be db74 033f
00000020: 8683 13bf 9495 61bd 0bf9 a33c f0be ab3b
00000030: 1fe6 153f 00e2 79bf 1a9c ecbd

weight f4 [2, 1]
-2.413166 0.015138872
00000000: 5071 1ac0 0809 783c

weight f4 [4, 2]
-0.14928067 -0.24831653 -0.20164537 -0.32600752 2.8468986 -0.58656746 0.33010828 0.35599625
00000000: 08dd 18be b046 7ebe 207c 4ebe 75ea a6be
00000010: 9633 3640 4929 16bf f403 a93e 2445 b63e

weight f4 [5]
0.46144882 0.4571984 1.1693236 0.8119292 2.076096
00000000: 0543 ec3e e915 ea3e 65ac 953f 98da 4f3f
00000010: c2de 0440

bias f4 [5]
-0.6262655 -0.81178623 -1.5958498 -0.9168654 2.0316765
00000000: f052 20bf 39d1 4fbf ce44 ccbf b1b7 6abf
00000010: fd06 0240

running_mean f4 [5]
70.080826 9977.888 1158.0859 343.58707 53.377293
00000000: 6229 8c42 8de7 1b46 c0c2 9044 25cb ab43
00000010: 5982 5542

running_var f4 [5]
579.8442 6.483359e+07 146595.55 188871.0 1001.55566
00000000: 07f6 1044 0e52 774c e328 0f48 c071 3848
00000010: 9063 7a44

weight f4 [100, 19]
-0.16173278 -0.3908088 0.048316646 -0.24365997 -0.04383796 0.18367492 -0.03377134 -0.2150912
-0.15074332 -0.0247171 -0.5083127 -0.29646638 0.042938326 0.05859226 0.26891223 -2.9946544
0.24801418 -0.5656053 0.31950533 -0.4359112 0.53222364 0.18801306 -0.01259035 0.5323694
0.20213075 -0.53319746 0.274914 0.65823245 -0.23430099 -1.0496377 0.5916985 -0.90363824
-1.0701941 0.92335564 0.47117174 0.46199203 0.41297516 -1.5873637 0.38576853 0.4919776
-1.2099947 -0.004422712 -0.5151554 -0.6378506 0.25432616 0.3023686 -4.12769 2.357762
-0.740724 0.32771236 -0.4114205 -0.19389538 -1.2327746 0.7193142 0.5227203 0.6739554
-1.3314363 0.13455503 0.28033543 0.19467008 0.024278339 -0.28728858 0.14158455 0.12805806
-0.12434711 1.0521001 -0.1619335 -0.28815833 -0.009398102 -0.027181605 -0.17718287 0.33548704
0.23246276 0.33228815 0.47820705 -4.0543847 -0.10754934 -0.28600577 0.17237031 0.88906676
-0.22458172 -0.7707844 0.7750793 1.0729139 0.98392785 -0.5992174 -0.821357 0.5407341
-0.079353064 0.6201642 1.2517456 1.4869578 -1.7898811 -2.7616243 0.42156005 0.77620655
0.23368676 -0.27071 0.058123965 -0.04339329 -0.15429947 0.8184282 -0.0033365292 1.1831412
-0.9188289 -0.33381552 -0.30839705 0.5768748 0.82908756 -0.4545552 -1.223444 -1.2401292
-2.02824 0.2971104 0.13490544 -0.017347703 -1.0744076 0.009413228 0.49544123 0.001234147
-0.0012381137 0.3382896 3.3268154 0.109346345 0.047275737 0.40470135 -1.0087149 -0.9917308
0.048453175 0.45857456 1.6326814 0.4060745 -2.3782957 0.47480717 0.5499487 -1.7413185
0.09140053 -0.25145975 -0.4011921 0.5394611 0.08021768 -4.7247887 3.3369029 -1.0498157
1.3238164 -0.23294973 -0.101980686 -1.5885063 0.44338506 0.77796733 0.814789 -1.5299184
-0.051363103 -0.17522886 0.10016494 0.13477758 0.25127566 0.32617345 -0.34521362 -0.21326974
0.504642 0.39334083 0.24354191 0.249036 -0.16227873 0.3634 0.25577718 0.25332654
-0.17628261 0.2614688 -0.94070685 0.15190135 -0.03619431 -0.15462467 -0.12921396 -0.118700266
0.22582482 -0.06056005 -0.46541446 0.15566757 0.090150535 -0.39725846 0.3278169 -0.23171206
-0.2113714 0.5126687 -0.02261877 -0.014542018 0.17208122 -0.69685316 -0.23221798 0.0057969647
0.15435392 -0.40340328 0.16562156 0.22559689 -0.62609714 0.20194274 0.116333604 0.5467488
0.08361135 -0.31183767 -0.31180465 0.23732741 -0.087150365 0.19390295 0.6103435 0.225971
-1.1441891 0.2390148 0.12284512 -0.11194168 -0.16245927 0.042658944 0.0037863252 0.100750476
0.03131422 0.30540967 -0.13839254 -0.40691486 -0.5293612 0.1330851 0.28257543 -0.23110764
-3.1486843 -1.2464702 -1.9924579 0.48975337 0.5138258 0.31441462 -0.08974387 -0.49310002
-0.10387006 0.59945273 0.23206252 -0.44356942 0.19556078 0.53827727 -0.51817966 -0.41380322
-1.374386 -1.2647604 -2.9631207 0.76628524 -1.6476911 -1.1322345 -0.25651023 1.0521888
-0.25224432 -0.094836436 -0.71058005 -1.9751968 0.4813607 0.55937123 -0.3502367 0.155163
00000000: 479d 25be 1718 c8be ade7 453d 0082 79be
00000010: 6f8f 33bd 4715 3c3e d153 0abd de40 5cbe
00000020: 755c 1abe 847b cabc c820 02bf 71ca 97be
00000030: 19e0 2f3d 70fe 6f3d ddae 893e 6ba8 3fc0
00000040: 6ef7 7d3e 82cb 10bf 3496 a33e c12f dfbe
00000050: cf3f 083f 7f86 403e c147 4ebc 5c49 083f
00000060: 5dfb 4e3e a17f 08bf 87c1 8c3e ec81 283f
00000070: 99ec 6fbe 875a 86bf 8e79 173f d654 67bf
00000080: 1ffc 88bf 0961 6c3f 6c3d f13e 388a ec3e
00000090: 7b71 d33e bc2e cbbf 7483 c53e 7de4 fb3e
000000a0: 1be1 9abf 66ec 90bb 39e1 03bf 2d4a 23bf
000000b0: 0a37 823e 0fd0 9a3e 0916 84c0 93e5 1640
000000c0: 17a0 3dbf eac9 a73e b5a5 d2be 838c 46be
000000d0: 8fcb 9dbf fa24 383f ffd0 053f 5788 2c3f
000000e0: 816c aabf cbc8 093e 2088 8f3e 9857 473e
000000f0: 5ee3 c63c 7d17 93be 8afb 103e a721 033e
00000100: b3a9 febd 37ab 863f e5d1 25be 7d89 93be
00000110: 7ffa 19bc f5ab debc 6d6f 35be f5c4 ab3e
00000120: b80a 6e3e ac21 aa3e 8ed7 f43e 85bd 81c0
00000130: d442 dcbd 596f 92be d881 303e e199 633f
00000140: c0f8 65be 2052 45bf 996b 463f 3e55 893f
00000150: b2e2 7b3f 5066 19bf 7444 52bf 8d6d 0a3f
00000160: dc83 a2bd 15c3 1e3f 3339 a03f a254 be3f
00000170: d31a e5bf 74be 30c0 b8d6 d73e 79b5 463f
00000180: 954b 6f3e 809a 8abe 6513 6e3d 2abd 31bd
00000190: ae00 1ebe 8384 513f aca9 5abb 2c71 973f
000001a0: 5f38 6bbf dee9 aabe 38e6 9dbe 11ae 133f
000001b0: 153f 543f 76bb e8be d099 9cbf 8ebc 9ebf
000001c0: afce 01c0 db1e 983e a724 0a3e c51c 8ebc
000001d0: 3086 89bf f139 1a3c 79aa fd3e 1ac3 a13a
000001e0: 3448 a2ba 4b34 ad3e 8bea 5440 faf0 df3d
000001f0: 34a4 413d 0435 cf3e 921d 81bf 12e2 7dbf
00000200: d676 463d 49ca ea3e b4fb d03f ffe8 cf3e
00000210: ff35 18c0 ed19 f33e 70c9 0c3f 86e3 debf
00000220: 3330 bb3d 55bf 80be 0d69 cdbe 1f1a 0a3f
00000230: 2b49 a43d 7831 97c0 d18f 5540 5c60 86bf
00000240: d172 a93f 608a 6ebe 40db d0bd 2d54 cbbf
00000250: 5e03 e33e de28 473f 0396 503f 5ed4 c3bf
00000260: 1e62 52bd 326f 33be 4723 cd3d 2203 0a3e
00000270: 34a7 803e 3500 a73e d7bf b0be 6263 5abe
00000280: 3830 013f f863 c93e 0d63 793e 4b03 7f3e
00000290: 652c 26be 910f ba3e 3af5 823e 04b4 813e
000002a0: 6e83 34be 3ddf 853e 2ad2 70bf 078c 1b3e
000002b0: 7c40 14bd ee55 1ebe aa50 04be 2019 f3bd
000002c0: 9f3e 673e d10d 78bd ce4a eebe 5267 1f3e
000002d0: d8a0 b83d 7665 cbbe 9ed7 a73e ed45 6dbe
000002e0: bf71 58be 423e 033f 004b b9bc a541 6ebc
000002f0: 0f36 303e f864 32bf 8dca 6dbe 77f4 bd3b
00000300: f40e 1e3e e08a cebe b398 293e df02 673e
00000310: e747 20bf 14ca 4e3e 5040 ee3d bbf7 0b3f
00000320: 6d3c ab3d 30a9 9fbe dca4 9fbe f505 733e
00000330: e47b b2bd 7f8e 463e 793f 1c3f f164 673e
00000340: ca74 92bf 4cc0 743e 3996 fb3d ae41 e5bd
00000350: b95b 26be 25bb 2e3d ff23 783b 4456 ce3d
00000360: 5743 003d a85e 9c3e c6b6 0dbe 2557 d0be
00000370: 3784 07bf 7647 083e baad 903e 7ba7 6cbe
00000380: 0b84 49c0 568c 9fbf dc08 ffbf f4c0 fa3e
00000390: 168a 033f f4fa a03e a2cb b7bd 9b77 fcbe
000003a0: d3b9 d4bd bc75 193f cca1 6d3e 881b e3be
000003b0: 1641 483e 8acc 093f 6ca7 04bf 04de d3be
000003c0: e1eb afbf abe3 a1bf c5a3 3dc0 452b 443f
000003d0: 8be7 d2bf 0fed 90bf 4f55 83be 1fae 863f
000003e0: 2b26 81be 9b39 c2bd 93e8 35bf 40d3 fcbf
000003f0: e974 f63e f432 0f3f 3a52 b3be 0de3 1e3e

bias f4 [100]
-3.982822 -2.1040072 2.9015357 -1.4027556 0.25321114 6.1803603 -2.1044242 3.0543442
-2.3355289 -2.1159854 -2.1047497 5.890822 -3.3219836 2.4751816 5.2618504 6.3169684
1.5155534 -1.7411984 -3.421206 3.3699176 -1.8890556 3.0014706 -4.375383 0.1412837
-1.8727709 -2.3967497 -4.502968 -0.893736 -1.9493817 -2.0626626 -0.15213582 -2.3031378
-2.3887484 -1.0850049 4.0337815 1.5041071 2.6935596 6.8964458 6.8572726 1.624926
-1.4491881 -0.5607626 -0.5664834 -1.5048249 3.3248336 -1.682995 6.460057 -1.8523365
3.867627 1.3536582 -1.0956017 -1.1417426 -0.16592121 -4.4011207 2.7669759 3.1752286
2.9747052 3.1077547 2.7902048 3.0931664 1.6084726 -1.2416705 3.1480167 -1.0052203
0.41054252 3.7156875 2.48757 -0.13211776 -2.8702412 4.7345247 6.5177236 6.0946727
2.5174932 -3.119805 3.2207553 -0.6059839 -2.6444135 2.4333642 1.459306 1.3720893
-3.647479 -1.6979636 -0.4776288 1.4776934 6.0862584 3.4355936 3.2223864 -1.5449369
5.6455307 3.0853703 -1.7609642 -1.5479858 2.994769 1.6261066 3.1602354 -3.1941142
4.7039614 -1.9318163 -1.9978005 3.378389
00000000: 8ee6 7ec0 0ea8 06c0 c3b2 3940 7f8d b3bf
00000010: e4a4 813e 83c5 c540 e3ae 06c0 607a 4340
00000020: 4e79 15c0 4e6c 07c0 38b4 06c0 9d81 bc40
00000030: 619b 54c0 6069 1e40 1461 a840 9b24 ca40
00000040: a7fd c13f 97df debf 0af5 5ac0 bbac 5740
00000050: 93cc f1bf 1818 4040 2303 8cc0 adac 103e
00000060: f5b6 efbf 5964 19c0 5018 90c0 e2cb 64bf
00000070: 5785 f9bf aa02 04c0 7ec9 1bbe 9c66 13c0
00000080: 41e1 18c0 71e1 8abf bd14 8140 9586 c03f
00000090: 4863 2c40 afaf dc40 c76e db40 93fd cf3f
000000a0: ff7e b9bf 238e 0fbf 0e05 11bf 1a9e c0bf
000000b0: 13ca 5440 616c d7bf c9b8 ce40 5d19 edbf
000000c0: 3387 7740 ac44 ad3f ad3c 8cbf 9f24 92bf
000000d0: 40e7 29be fbd5 8cc0 2216 3140 f236 4b40
000000e0: 9261 3e40 74e5 4640 b792 3240 70f6 4540
000000f0: 6ee2 cd3f 0fef 9ebf 1b79 4940 0fab 80bf
00000100: a132 d23e d3cd 6d40 5934 1f40 e149 07be
00000110: 08b2 37c0 3a81 9740 3191 d040 8f07 c340
00000120: 9c1e 2140 e3aa 47c0 db20 4e40 c321 1bbf
00000130: 123e 29c0 3dbc 1b40 8aca ba3f 9fa0 af3f
00000140: 4c70 69c0 df56 d9bf c38b f4be 0f25 bd3f
00000150: a1c2 c240 c4e0 5b40 943b 4e40 7ec0 c5bf
00000160: 30a8 b440 b576 4540 4667 e1bf 6624 c6bf
00000170: 4caa 3f40 4324 d03f 4c41 4a40 5e6c 4cc0
00000180: da86 9640 c245 f7bf edb7 ffbf 8637 5840

weight f4 [100]
0.6662508 -0.30025238 0.2937173 1.0451864 0.27615243 0.3347676 -0.42911637 0.26252827
0.8855738 0.85234094 2.1185002 0.30594876 0.43081966 0.107426345 0.27996612 0.2657987
0.29572666 0.085524075 0.9363618 0.3171235 1.5644039 0.25604975 0.40714535 0.32668746
-0.38021043 1.4606122 0.70572037 0.43755585 0.36674452 0.14895216 0.60833085 1.8528308
-0.46585515 0.5173713 0.1981646 -0.3201355 0.25051975 0.2530419 0.24920371 -0.5134176
1.0399908 0.212126 0.2347289 0.5197216 0.24382141 -0.55680484 -0.2053589 -0.55103076
0.288415 0.36330768 0.81528926 0.63109446 0.3579262 -0.18458769 0.32415345 0.33954147
0.28780475 0.31196782 -0.22867993 0.15578681 0.5044162 0.3726304 0.42249084 0.7323332
0.6810386 0.23573042 0.24985887 0.27485412 0.7757242 0.24333116 0.2809113 0.26707864
0.58492106 0.37311932 0.2944701 0.26956448 0.32711068 0.2764253 0.18449143 0.29444486
-0.41926873 0.28824294 0.45366305 0.1502416 0.3361761 0.29104763 0.19303994 0.48517346
0.3389612 0.2243256 2.0116827 0.3338708 0.28496316 0.36176223 0.24054547 0.410115
0.31069162 2.395631 0.18459374 0.31493902
00000000: 6a8f 2a3f aeba 99be 1d62 963e abc8 853f
00000010: da63 8d3e a966 ab3e 24b5 dbbe 1b6a 863e
00000020: f7b4 623f 0433 5a3f 8295 0740 51a5 9c3e
00000030: 6594 dc3e 5802 dc3d b857 8f3e c416 883e
00000040: 7c69 973e 3f27 af3d 68b5 6f3f 035e a23e
00000050: 633e c83f f418 833e 5b75 d03e 9443 a73e
00000060: f1aa c2be 57f5 ba3f 17aa 343f 5207 e03e
00000070: f0c5 bb3e ea86 183e 92bb 1b3f 8f29 ed3f
00000080: 9184 eebe 7272 043f a9eb 4a3e cde8 a3be
00000090: 2044 803e b58e 813e 422f 7f3e 566f 03bf
000000a0: 6b1e 853f 8f37 593e c65c 703e 7a0c 053f
000000b0: 52ac 793e c38a 0ebf 9a49 52be 5a10 0dbf
000000c0: 22ab 933e 7703 ba3e ccb6 503f 688f 213f
000000d0: 1a42 b73e 8e04 3dbe 71f7 a53e 61d8 ad3e
000000e0: 255b 933e 3fba 9f3e 122b 6abe 9486 1f3e
000000f0: 6c21 013f 69c9 be3e b850 d83e 307a 3b3f
00000100: 8c58 2e3f 5163 713e 01db 7f3e aeb9 8c3e
00000110: dc95 463f ce2b 793e 9bd3 8f3e 88be 883e
00000120: 63bd 153f 7f09 bf3e c9c4 963e 5b04 8a3e
00000130: 0d7b a73e 9e87 8d3e 52eb 3c3e 7ac1 963e
00000140: 64aa d6be 9494 933e 8646 e83e efd8 193e
00000150: 461f ac3e 3204 953e 43ac 453e a868 f83e
00000160: 538c ad3e 9cb5 653e 69bf 0040 1df1 aa3e
00000170: b1e6 913e e638 b93e 8d51 763e 98fa d13e
00000180: f912 9f3e 0552 1940 2406 3d3e b03f a13e

bias f4 [100]
0.17576067 -0.013157952 -0.056891214 -0.009258067 0.24558373 0.037464585 -0.032302115 -0.012878186
-0.068008155 -0.099194326 -0.041216608 0.10521133 0.042498127 -0.04541873 0.1061863 0.06564186
0.06814572 0.08875284 0.36167857 0.11781511 0.016417997 0.14203794 -0.0769168 -0.06831128
-0.0076288027 -0.05085319 0.04105809 0.33778945 -0.010797884 -0.00028980547 0.35717818 0.04771782
-0.15509793 0.016848039 0.17101398 -0.00288307 -0.082291126 0.07098502 0.083076864 -0.075325675
0.07037134 0.21122172 0.2438357 0.04842853 0.21539983 -0.023836317 -0.20571406 0.1251633
0.21424352 0.005115072 0.023173772 0.013598537 0.010978212 0.030925523 0.07991677 0.23778896
0.0021031832 -0.1324322 0.0067725694 -0.1022942 0.0515695 0.018545404 0.17184512 0.13773505
0.09166306 0.17256777 -0.045447256 0.2950397 0.013003858 0.12358477 0.14530988 0.1431305
0.09591355 0.363797 0.12529036 0.00618328 0.039704245 -0.0054787616 -0.041193157 0.028706247
-0.011801485 0.28172132 0.39231476 -0.10800182 0.059228476 0.15093626 0.19792143 0.13242203
0.005394226 -0.07453096 -0.044155143 0.0053097294 -0.22295831 0.016394356 -0.17129377 0.30704868
0.18668628 0.09398955 0.042620886 0.15711537
00000000: 9bfa 333e 7394 57bc c306 69bd 26af 17bc
00000010: 4d7a 7b3e 7774 193d 394f 04bd 07ff 52bc
00000020: dc47 8bbd 6526 cbbd bfd2 28bd 0a79 d73d
00000030: 8412 2e3d fd08 3abd 3478 d93d 3d6f 863d
00000040: fc8f 8b3d 0dc4 b53d ef2d b93e 0c49 f13d
00000050: 097f 863c 6572 113e 8e86 9dbd c9e6 8bbd
00000060: 09fb f9bb 6f4b 50bd 872c 283d bdf2 ac3e
00000070: 9ce9 30bc 08f1 97b9 0fe0 b63e c373 433d
00000080: fed1 1ebe e604 8a3c 4a1e 2f3e e3f1 3cbb
00000090: 4088 a8bd 9860 913d 3424 aa3d 5944 9abd
000000a0: d91e 903d 824a 583e 11b0 793e ff5c 463d
000000b0: c691 5c3e 6144 c3bc b5a6 52be cf2a 003e
000000c0: a762 5b3e 559c a73b ecd6 bd3c 66cc 5e3c
000000d0: f5dd 333c 8657 fd3c 67ab a33d f37e 733e
000000e0: 8fd5 093b 4e9c 07be 6eec dd3b 9f7f d1bd
000000f0: 8a3a 533d 88ec 973c 2bf8 2f3e 6b0a 0d3e
00000100: d8b9 bb3d 9bb5 303e e726 3abd 720f 973e
00000110: 220e 553c 031a fd3d 1dcc 143e cd90 123e
00000120: 536e c43d 9a43 ba3e 1e4c 003e 1d9d ca3b
00000130: eba0 223d 2f87 b3bb 28ba 28bd 5d29 eb3c
00000140: 045b 41bc c73d 903e 7bdd c83e 0f30 ddbd
00000150: 8f99 723d 098f 1a3e eaab 4a3e a499 073e
00000160: 0cc2 b03b b0a3 98bd 06dc 34bd 3dfd ad3b
00000170: 2f4f 64be 754d 863c a267 2fbe 7c35 9d3e
00000180: b02a 3f3e 987d c03d 3d93 2e3d dae2 203e

running_mean f4 [100]
0.08117784 0.0051117586 0.99151796 0.0070580356 5.457104 12.524104 0.021701641 1.1178498
6e-45 6e-45 0.002021745 13.57239 1.2240059 0.40950525 13.05558 13.537921
6.954661 1.3607775e-31 1.3159231 12.184647 0.0034804235 11.34279 0.12766981 8.419086
0.042136207 6e-45 0.016365135 2.3999417 0.015588106 0.020209458 1.5106828 0.0010889042
0.21918638 0.031507194 13.09515 0.1617564 0.67727673 13.884002 13.682323 0.15125434
0.017399024 7.172637 7.848491 0.23282543 12.140782 0.03693472 13.626518 0.008475036
12.023835 0.18677586 0.026890013 0.030771637 0.15756685 0.0012426769 0.27613202 11.261337
0.5718988 0.6055759 0.39685982 0.8383601 0.15036918 0.037715726 12.063872 0.21768415
0.07991106 12.026353 0.67687196 3.468689 0.019122353 12.367237 14.3095455 13.209072
0.17987488 4.1276097 11.582243 0.13434935 4.2014756 0.3173758 0.32980663 0.26164857
0.012023933 4.6616173 3.9156702 0.24847147 13.296064 12.138222 11.988112 2.7015195
13.235425 0.7934841 0.0016160988 0.0066482467 0.5830162 0.14631705 0.83050543 4.063897
12.650568 0.008639408 0.00094534113 11.680792
00000000: 9140 a63d 8a80 a73b 1fd4 7d3f 1847 e73b
00000010: 99a0 ae40 bb62 4841 a4c7 b13c b415 8f3f
00000020: 0400 0000 0400 0000 417f 043b 8228 5941
00000030: 3aac 9c3f acaa d13e a8e3 5041 539b 5841
00000040: 958c de40 97a3 300c 2b70 a83f 50f4 4241
00000050: d117 643b 117c 3541 e0bb 023e 94b4 0641
00000060: 0497 2c3d 0400 0000 2d10 863c a598 1940
00000070: 4165 7f3c 4e8e a53c 0e5e c13f 90b9 8e3a
00000080: 6572 603e b00d 013d bc85 5141 78a3 253e
00000090: 0262 2d3f df24 5e41 ccea 5a41 6be2 1a3e
000000a0: 6688 8e3c 3e86 e540 d726 fb40 ca69 6e3e
000000b0: a540 4241 dc48 173d 3806 5a41 e1da 0a3c
000000c0: a161 4041 2c42 3f3e 7248 dc3c cd14 fc3c
000000d0: 3459 213e 51e1 a23a 2d61 8d3e 702e 3441
000000e0: f667 123f 0607 1b3f 3631 cb3e c49e 563f
000000f0: 61fa 193e ce7b 1a3d 9f05 4141 98e8 5e3e
00000100: 69a8 a33d f16b 4041 7b47 2d3f 00ff 5d40
00000110: 7ba6 9c3c 34e0 4541 e6f3 6441 5c58 5341
00000120: 1f31 383e 6115 8440 de50 3941 e092 093e
00000130: 7d72 8640 157f a23e 6adc a83e cdf6 853e
00000140: 0800 453c f82b 9540 579a 7a40 4e6f 7e3e
00000150: aebc 5441 2836 4241 4fcf 3f41 b2e5 2c40
00000160: 4dc4 5341 c621 4b3f 47d3 d33a 89d9 d93b
00000170: 8d40 153f 23d4 153e 019c 543f 720b 8240
00000180: ba68 4a41 4e8c 0d3c c5d0 773a 86e4 3a41

running_var f4 [100]
0.0560732 0.013610444 1.7670275 0.019135103 12.732741 9.303788 0.114013456 2.29813
6e-45 6e-45 0.0028559058 9.580377 2.158427 0.8107189 12.460296 11.552968
10.182221 3.0799278e-33 8.0806 12.823511 0.009547973 15.132359 0.19307537 14.447976
0.22416586 6e-45 0.046663973 5.0975924 0.07105458 0.09870741 3.274539 0.0008524871
1.1423243 0.19074474 13.176345 0.55883604 1.053754 9.605215 9.745736 0.8674642
0.06414389 11.442599 15.994518 0.47034168 11.4548235 0.32756954 13.14982 0.039503407
9.368719 0.4959768 0.13292722 0.1886831 0.7004661 0.004214904 0.9345896 13.735806
1.1743098 1.0197194 0.9763547 1.4450413 0.88607377 0.024801916 13.202022 0.64742655
0.3787145 9.347505 1.0376651 5.882628 0.051205255 14.736836 13.381103 13.95682
0.7841616 9.964022 11.381369 0.5040052 8.945013 0.76495594 0.7837655 0.58150566
0.03131141 9.719403 8.506235 0.551578 10.680942 11.104072 13.510742 5.076412
11.38232 1.3508173 0.0018286691 0.03241618 1.0750492 0.5728077 1.4319627 10.168981
14.365268 0.037287593 0.0016086085 11.174136
00000000: 03ad 653d 57fe 5e3c f52d e23f 38c1 9c3c
00000010: 4fb9 4b41 51dc 1441 e37f e93d 9014 1340
00000020: 0400 0000 0400 0000 262a 3b3b 3949 1941
00000030: ab23 0a40 468b 4f3f 5f5d 4741 f5d8 3841
00000040: 61ea 2241 d2de 7f09 234a 0141 1a2d 4d41
00000050: 1a6f 1c3c 241e 7241 8db5 453e e92a 6741
00000060: bc8b 653e 0400 0000 b922 3f3d 7a1f a340
00000070: 1085 913d 1c27 ca3d 0c92 5140 7179 5f3a
00000080: af37 923f 9752 433e 4fd2 5241 e10f 0f3f
00000090: 69e1 863f f6ae 1941 89ee 1b41 2212 5e3f
000000a0: df5d 833d e314 3741 8ce9 7f41 a0d0 f03e
000000b0: f546 3741 32b7 a73e aa65 5241 53ce 213d
000000c0: 46e6 1541 acf0 fd3e 131e 083e 2436 413e
000000d0: bf51 333f 2d1d 8a3b 4441 6f3f ddc5 5b41
000000e0: c94f 963f 2a86 823f 62f2 793f 1df7 b83f
000000f0: bbd5 623f 632d cb3c 7b3b 5341 bfbd 253f
00000100: dee6 c13e 618f 1541 36d2 843f 7d3e bc40
00000110: 9abc 513d 15ca 6b41 ff18 5641 224f 5f41
00000120: d1be 483f a26c 1f41 161a 3641 7c06 013f
00000130: c61e 0f41 27d4 433f dba4 483f 8edd 143f
00000140: 6540 003d ad82 1b41 8a19 0841 3734 0d3f
00000150: 23e5 2a41 47aa 3141 002c 5841 f871 a240
00000160: fc1d 3641 95e7 ac3f f4af ef3a d4c6 043d
00000170: 369b 893f 87a3 123f 8e4a b73f 25b4 2241
00000180: 23d8 6541 e0ba 183d f2d7 d23a 43c9 3241

weight f4 [50, 100]
-1.7320484 -0.41065517 0.49722075 -0.2891341 -0.22992621 -0.5585351 0.13002428 0.42204383
-0.82127666 0.18919712 -1.098101 -0.8514697 0.3666511 0.092570975 -0.93612534 -0.43254435
-0.75690746 0.46763548 -0.7880491 -0.47046152 -1.0715234 -0.72347134 0.45545983 -0.65978336
0.15143718 -0.84856814 -0.4677848 0.31254625 0.16439222 1.0246679 1.1121854 -1.5795166
-1.1685851 -1.0212725 -0.4753426 -0.24273029 0.63855594 -0.57993054 -0.4348212 -0.842482
-0.3705804 -0.358569 -0.58650666 -0.6182278 -0.9672631 0.1137842 0.91581076 0.7307581
-0.25392717 1.1196884 0.28722453 -0.5854677 0.6597812 -0.1438982 0.4117163 -1.0690635
0.23871604 0.8152057 -0.9804733 0.23381847 0.35084212 1.2181736 -0.98941356 0.35921144
0.14659126 -1.254794 0.51133084 0.27117392 -0.040954024 -0.83690065 -0.80701077 -0.19248024
-0.70755273 -0.6815939 -1.1489971 -0.41935062 -0.37115565 0.67831016 0.2922623 0.67694163
-0.43844095 -0.40785894 0.63630694 -0.012580663 -0.51989084 -1.64704 -1.0419561 -0.17958748
-0.25441536 0.9463605 -1.4111072 -1.607491 -0.29469264 0.98676145 0.18289217 -0.9369635
-0.3164733 -1.9362481 -0.0743802 -1.3320136 -1.8848622 1.1821284 0.89167815 -0.22450632
0.1256972 -0.3310248 -0.026343873 0.9244569 -0.8549058 -1.1313664 -1.4670166 -0.9261774
-1.400163 -0.020406676 -0.75025606 -0.60936075 -0.58404905 -0.24193095 0.776101 -0.238968
-0.77808505 -0.08393521 -1.0731003 -1.3848945 0.28381816 -0.99805295 -0.398875 -0.59664625
-0.32500973 0.09663775 -1.0086365 -1.0309108 0.037982825 0.15814449 -0.25760576 -0.76447624
0.24249613 -0.88360405 -0.27576274 0.10816102 -0.033974305 0.24010889 -0.15273026 -0.8741049
-0.3959482 0.99065804 0.23605217 0.22637334 -0.44421712 0.8696855 -1.1328977 -0.060460266
-0.050041333 -0.7896446 0.71095514 -0.4460417 0.78011185 0.26371834 -0.75006527 -0.006072037
-0.1019893 0.79328746 -0.32725817 -0.4309875 0.2380524 -0.34176877 0.8527736 -0.72706157
0.95246625 -0.53402925 -0.52063906 -0.5387874 0.3866748 -1.0557885 -0.43052408 0.3889536
-1.1188557 0.19311675 -0.27206078 0.82725656 0.13302667 -0.14320053 -0.78951985 0.15103698
-1.1112822 -0.111452654 -0.48104766 -0.07286577 -1.768885 -0.2177146 -1.4171567 -0.15170586
-0.57458466 0.26063582 -0.39856023 -0.5557413 -0.231646 -1.9537705 0.39748594 0.33105078
-1.7449425 0.4803663 0.30356634 -0.16169141 -1.1493534 -1.0023001 0.2019728 -0.0723712
-0.71044105 -0.05917026 -1.3652372 0.40835103 0.52755684 0.026111517 -0.60026306 -0.29387498
-0.90717465 0.1546261 -3.8205323 -0.10655375 -0.767822 -0.7972032 1.2123348 -0.69077337
0.3944269 -0.19932613 0.46033314 -1.0155917 0.4505102 0.8356509 -1.5545741 -0.86801696
2.8588858 -0.2727051 -0.48231032 -0.685933 0.53005433 0.15980725 -0.38866737 0.13194509
-0.91683143 -0.38448083 -1.2372837 -1.9252456 -0.42732772 1.2674701 0.48184782 0.481845
-0.07130998 0.97936666 0.09150507 0.10028492 0.40717065 -0.48825094 -0.19516475 -0.251662
00000000: c3b3 ddbf 6541 d2be b893 fe3e 6209 94be
00000010: c771 6bbe 28fc 0ebf 1625 053e 2116 d83e
00000020: 303f 52bf e4bc 413e 938e 8cbf ebf9 59bf
00000030: b1b9 bb3e da95 bd3d e9a5 6fbf 7476 ddbe
00000040: b0c4 41bf eb6d ef3e 96bd 49bf 55e0 f0be
00000050: ae27 89bf 6b35 39bf 0832 e93e 90e7 28bf
00000060: 5912 1b3e c33b 59bf 7d81 efbe 1006 a03e
00000070: 6f56 283e 5128 833f 175c 8e3f 9a2d cabf
00000080: 3294 95bf 0fb9 82bf 1b60 f3be 4a8e 78be
00000090: 6778 233f 5476 14bf e2a0 debe e6ac 57bf
000000a0: b7bc bdbe 5b96 b7be 4d25 16bf 2d44 1ebf
000000b0: 8e9e 77bf b107 e93d 9372 6a3f f612 3b3f
000000c0: be02 82be f351 8f3f 180f 933e 36e1 15bf
000000d0: 6ce7 283f 0d5a 13be 7bcc d23e 13d7 88bf
000000e0: fa71 743e 52b1 503f 4c00 7bbf 1c6e 6f3e
000000f0: 94a1 b33e 1ded 9b3f 354a 7dbf 90ea b73e
00000100: 051c 163e 179d a0bf 94e6 023f 4fd7 8a3e
00000110: 68bf 27bd 1f3f 56bf 4298 4ebf 8a19 45be
00000120: 2d22 35bf f07c 2ebf 5612 93bf 20b5 d6be
00000130: 1d08 bebe bca5 2d3f 67a3 953e 0c4c 2d3f
00000140: 557b e0be e3d2 d0be 03e5 223f 201f 4ebc
00000150: 9117 05bf 35d2 d2bf d15e 85bf c8e5 37be
00000160: bb42 82be af44 723f 299f b4bf 44c2 cdbf
00000170: f4e1 96be 669c 7c3f 1648 3b3e d7dc 6fbf
00000180: ca08 a2be fad6 f7bf a554 98bd 6c7f aabf
00000190: 2a43 f1bf fc4f 973f 0545 643f fce4 65be
000001a0: c4b6 003e 157c a9be 1bcf d7bc 35a9 6c3f
000001b0: 1bdb 5abf 9dd0 90bf 33c7 bbbf f619 6dbf
000001c0: 8b38 b3bf e72b a7bc c810 40bf 11ff 1bbf
000001d0: 3d84 15bf bfbc 77be 8eae 463f 07b4 74be
000001e0: 9530 47bf 39e6 abbd 5a5b 89bf 3944 b1bf
000001f0: 9d50 913e 6680 7fbf 5839 ccbe cfbd 18bf
00000200: ad67 a6be 03ea c53d 001b 81bf e3f4 83bf
00000210: e193 1b3d a1f0 213e e7e4 83be b7b4 43bf
00000220: e850 783e e033 62bf c630 8dbe 8683 dd3d
00000230: a428 0bbd 1bdf 753e 5265 1cbe 57c5 5fbf
00000240: b9b9 cabe c49b 7d3f a9b7 713e 6ace 673e
00000250: 6d70 e3be b5a3 5e3f cb02 91bf 2fa5 77bd
00000260: 24f8 4cbd 2626 4abf 2801 363f 945f e4be
00000270: 69b5 473f 1706 873e 4704 40bf f0f7 c6bb
00000280: c4df d0bd e314 4b3f 628e a7be 65aa dcbe
00000290: 02c4 733e 51fc aebe 5f4f 5a3f b520 3abf
000002a0: d4d4 733f 24b6 08bf 9a48 05bf f9ed 09bf
000002b0: 3dfa c53e 1424 87bf a76d dcbe ed24 c73e
000002c0: aa36 8fbf 66c0 453e 8d4b 8bbe 16c7 533f
000002d0: 2538 083e 29a3 12be f91d 4abf 70a9 1a3e
000002e0: 7f3e 8ebf 4a41 e4bd e14b f6be a63a 95bd
000002f0: d36a e2bf 93f0 5ebe 6465 b5bf c858 1bbe
00000300: fb17 13bf 0f72 853e 1610 ccbe 1045 0ebf
00000310: 9c34 6dbe 2715 fabf 4783 cb3e 7d7f a93e
00000320: 475a dfbf 92f2 f53e 0c6d 9b3e 6f92 25be
00000330: 031e 93bf 5f4b 80bf f5d1 4e3e 5a37 94bd
00000340: 77df 35bf 845c 72bd 18c0 aebf 6313 d13e
00000350: f70d 073f d2e7 d53c d7aa 19bf c876 96be
00000360: 993c 68bf 4e56 1e3e 9a83 74c0 da38 dabd
00000370: fc8f 44bf 8215 4cbf c92d 9b3f 86d6 30bf
00000380: 53f2 c93e 261c 4cbe c9b0 eb3e e9fe 81bf
00000390: 46a9 e63e 38ed 553f 49fc c6bf 5c36 5ebf
000003a0: fcf7 3640 01a0 8bbe 61f1 f6be 4e99 2fbf
000003b0: a4b1 073f 83a4 233e 69ff c6be 9d1c 073e
000003c0: 77b5 6abf acda c4be 505f 9ebf 736e f6bf
000003d0: b3ca dabe 763c a23f c2b4 f63e 63b4 f63e
000003e0: f70a 92bd c6b7 7a3f 0367 bb3d 2e62 cd3d
000003f0: ac78 d03e 07fc f9be 45d9 47be d7d9 80be

bias f4 [50]
8.553149 9.408754 6.2513723 6.8876925 7.924033 8.095521 10.644027 11.152786
6.161468 4.5993805 5.3230925 11.680592 6.34485 10.28105 10.835405 7.3952723
4.212573 3.4134967 7.3242545 4.5179615 8.709258 7.2812557 6.7173376 10.942526
11.525351 6.395934 5.3698764 12.213625 10.918655 9.488866 3.0461497 11.15873
8.597884 6.711264 7.731496 11.628421 7.2512555 6.458246 9.100785 11.078393
7.646435 8.485955 8.506418 6.938496 10.588335 7.39552 10.769086 10.575005
11.260891 3.350594
00000000: b3d9 0841 428a 1641 3e0b c840 fa67 dc40
00000010: ae91 fd40 4187 0141 ef4d 2a41 d071 3241
00000020: bf2a c540 202e 9340 c656 aa40 b4e3 3a41
00000030: 0309 cb40 2e7f 2441 d25d 2d41 12a6 ec40
00000040: 66cd 8640 bb76 5a40 4b60 ea40 2493 9040
00000050: 1f59 0b41 0c00 e940 6ef4 d640 9614 2f41
00000060: d667 3841 7eab cc40 07d6 ab40 026b 4341
00000070: d0b2 2e41 65d2 1741 1ef4 4240 288a 3241
00000080: ef90 0941 adc2 d640 6a68 f740 030e 3a41
00000090: 490a e840 f4a9 ce40 d19c 1141 1941 3141
000000a0: 98af f440 79c6 0741 4a1a 0841 2908 de40
000000b0: d269 2941 1aa8 ec40 2d4e 2c41 3833 2941
000000c0: 9c2c 3441 2270 5640

weight f4 [50]
32.515175 32.356598 32.423862 33.92168 32.301807 33.019615 33.304718 32.984158
32.724174 33.422615 33.14963 33.664165 32.6423 33.13803 33.370632 32.998837
32.570065 32.550373 32.658398 32.516228 32.405384 32.43859 32.86256 32.80283
33.090992 32.103394 32.440395 33.728004 33.26159 33.46224 32.82429 33.29317
32.476635 32.67606 32.721676 33.264267 32.088333 32.928402 33.798363 33.0898
33.645096 32.392193 33.965946 34.033314 34.076473 32.74224 32.902054 33.27259
32.72264 32.870445
00000000: 8a0f 0242 286d 0142 09b2 0142 cdaf 0742
00000010: 0d35 0142 1614 0442 0838 0542 c7ef 0342
00000020: 8ee5 0242 c2b0 0542 3999 0442 1ba8 0642
00000030: b791 0242 588d 0442 877b 0542 cffe 0342
00000040: bf47 0242 9533 0242 33a2 0242 9e10 0242
00000050: 1d9f 0142 1ec1 0142 4373 0342 1936 0342
00000060: 2d5d 0442 e069 0042 f7c2 0142 7ae9 0642
00000070: de0b 0542 55d9 0542 134c 0342 352c 0542
00000080: 13e8 0142 49b4 0242 ffe2 0242 9c0e 0542
00000090: 745a 0042 afb6 0342 8631 0742 f55b 0442
000000a0: 9494 0642 9b91 0142 21dd 0742 1d22 0842
000000b0: 4f4e 0842 0ef8 0242 b49b 0342 2217 0542
000000c0: fce3 0242 567b 0342

bias f4 [50]
61.033134 60.819588 60.872105 -60.874622 60.793236 60.920937 -60.864143 -60.778923
60.95124 60.996937 61.046528 -60.752155 60.9374 -60.92908 -60.900097 60.97253
60.8483 60.88251 60.84426 60.89375 60.89187 61.011738 60.862377 -60.901188
-60.90179 60.809258 60.75489 -60.943687 -60.790142 -60.819298 60.872665 -60.742245
60.826477 60.97785 61.060875 -60.79869 60.788834 61.00632 -60.72681 -60.821587
-60.876045 61.022884 -60.93898 -60.759308 -60.8628 60.91462 -60.90246 -60.88918
-60.86784 60.93936
00000000: ee21 7442 4247 7342 097d 7342 9d7f 73c2
00000010: 462c 7342 0aaf 7342 e274 73c2 9e1d 73c2
00000020: 12ce 7342 ddfc 7342 a52f 7442 3502 73c2
00000030: e6bf 7342 61b7 73c2 b399 73c2 dfe3 7342
00000040: a964 7342 b187 7342 8660 7342 3393 7342
00000050: 4691 7342 050c 7442 1373 7342 d19a 73c2
00000060: 6f9b 73c2 ae3c 7342 0205 7342 56c6 73c2
00000070: 1b29 73c2 f646 73c2 9c7d 7342 0ff8 72c2
00000080: 504e 7342 52e9 7342 563e 7442 dc31 73c2
00000090: c427 7342 7906 7442 41e8 72c2 4e49 73c2
000000a0: 1281 73c2 6f17 7442 84c1 73c2 8809 73c2
000000b0: 8273 73c2 92a8 7342 1e9c 73c2 858e 73c2
000000c0: ab78 73c2 e8c1 7342

running_mean f4 [50]
6.9062724 7.722683 3.4891157 6.652017 7.1683526 6.856951 11.506825 12.297442
4.099597 2.8882709 4.000443 12.427601 4.5896697 11.60754 12.217788 5.0106034
3.166178 2.1158066 6.741363 3.1217747 8.281414 5.621607 4.602791 12.560494
12.215419 4.1896667 2.4558158 12.676037 11.863056 9.467804 0.8456779 11.6329775
7.89262 4.3233285 5.9580746 12.665128 4.8406115 4.594802 8.970891 12.193829
8.647661 6.193091 8.950024 6.825675 11.984707 5.0994563 12.257774 11.545929
13.139317 1.8877879
00000000: 2f00 dd40 3820 f740 ac4d 5f40 53dd d440
00000010: 2563 e540 256c db40 f51b 3841 53c2 4441
00000020: e62f 8340 6ed9 3840 a103 8040 74d7 4641
00000030: 93de 9240 7cb8 3941 0f7c 4341 dd56 a040
00000040: a9a2 4a40 6069 0740 3fb9 d740 28cb 4740
00000050: ac80 0441 34e4 b340 104a 9340 c9f7 4841
00000060: 5b72 4341 c011 8640 162c 1d40 0cd1 4a41
00000070: 14cf 3d41 207c 1741 597e 583f ad20 3a41
00000080: 5890 fc40 b558 8a40 8ca8 be40 5da4 4a41
00000090: 4ae6 9a40 9e08 9340 c588 0f41 ec19 4341
000000a0: d25c 0a41 cd2d c640 4c33 0f41 ee6b da40
000000b0: 5cc1 3f41 bf2e a340 d81f 4441 20bc 3841
000000c0: a43a 5241 09a3 f13f

running_var f4 [50]
47.24054 44.709675 22.26017 8.836784 39.762863 41.54825 4.573079 3.6076958
55.15176 37.87159 61.134434 4.6623387 50.996624 92.654655 4.881194 40.6918
45.204357 22.240993 37.776558 41.089466 35.361202 60.145935 52.9884 6.9597626
5.3396893 43.91226 11.501657 2.7711074 4.882667 5.62599 3.571784 4.1966376
41.463333 45.767044 34.11118 4.4232864 35.132664 55.613567 5.6457653 5.6062045
14.594268 35.988293 7.965639 6.1994166 110.435875 51.051342 6.5130816 3.154436
9.267473 17.1649
00000000: 50f6 3c42 b5d6 3242 d414 b241 7863 0d41
00000010: 2c0d 1f42 6831 2642 aa56 9240 7de4 6640
00000020: 679b 5c42 827c 1742 a989 7442 e131 9540
00000030: 8bfc 4b42 2f4f b942 be32 9c40 67c4 2242
00000040: 43d1 3442 8eed b141 321b 1742 9d5b 2442
00000050: df71 0d42 7095 7042 1ff4 5342 60b6 de40
00000060: bcde aa40 27a6 2f42 c906 3841 d359 3140
00000070: cf3e 9c40 1c08 b440 1c98 6440 db4a 8640
00000080: 74da 2542 7411 3742 d971 0842 908b 8d40
00000090: d987 0c42 4b74 5e42 1caa b440 0766 b340
000000a0: 1f82 6941 03f4 0f42 84e6 fe40 9f61 c640
000000b0: 2bdf dc42 9334 4c42 2a6b d040 48e2 4940
000000c0: 9247 1441 b751 8941

weight f4 [1, 50]
57.858494 58.020515 57.971016 -58.1358 58.037823 58.012318 -58.086754 -58.129715
57.89533 57.89447 57.907646 -58.192875 57.957405 -58.019768 -58.06183 57.93828
57.97496 57.97915 58.010677 57.95081 57.98642 57.847958 58.0155 -58.007576
-58.06474 58.04586 58.08824 -58.08756 -58.159077 -58.097233 57.97757 -58.198757
58.038403 57.88411 57.916847 -58.10975 58.110138 57.882793 -58.25919 -58.0452
-58.163467 57.8976 -58.07874 -58.290985 -58.053974 57.95242 -58.034756 -58.067284
-58.054745 57.99446
00000000: 196f 6742 0215 6842 52e2 6742 0f8b 68c2
00000010: bb26 6842 9d0c 6842 d658 68c2 d484 68c2
00000020: d194 6742 f093 6742 6ea1 6742 81c5 68c2
00000030: 62d4 6742 3e14 68c2 503f 68c2 ccc0 6742
00000040: 5ce6 6742 a6ea 6742 ef0a 6842 a1cd 6742
00000050: 18f2 6742 4f64 6742 df0f 6842 c207 68c2
00000060: 4b42 68c2 f62e 6842 5c5a 6842 a959 68c2
00000070: e5a2 68c2 9163 68c2 08e9 6742 87cb 68c2
00000080: 5327 6842 5489 6742 daaa 6742 6270 68c2
00000090: c870 6842 fb87 6742 6909 69c2 492e 68c2
000000a0: 64a7 68c2 2497 6742 a150 68c2 f829 69c2
000000b0: 4537 68c2 47cf 6742 9723 68c2 e644 68c2
000000c0: 0f38 68c2 54fa 6742
